cv_source/laptop_test_model.tflite (tflite, 679896 bytes, 107 tensors)

sequential_4/sequential_3/dense_Dense2/MatMul f4 [4, 100]
-0.086020745 0.095306784 -0.12892361 0.06509706 -0.050130542 -0.019832335 -0.09492894 0.110163234
0.11319391 -0.16067667 0.031647045 0.0022845357 -0.028378617 -0.034666926 -0.06683495 -0.13418394
0.02889522 0.17283379 -0.19634762 0.0901596 -0.17381807 0.124561794 0.05651238 -0.04300605
-0.14867277 0.10315818 -0.16943578 0.064676076 0.18270913 -0.057398535 -0.012527355 -0.13451804
-0.084773965 0.101297125 -0.14026436 -0.058141913 0.009525125 0.08609949 -0.10097135 0.038681094
-0.0733509 0.13518727 0.088265926 -0.1019225 0.039175827 -0.08985489 0.015151398 -0.21469395
-0.042042296 0.15286437 -0.020159999 0.05266918 0.18792215 -0.060661912 0.1243037 0.09282078
-0.13108015 -0.042086504 -0.11232305 -0.17608947 0.057931032 -0.13470371 -0.073186405 -0.055146664
-0.19301997 -0.0068510673 0.09782917 -0.059359696 -0.20476596 0.008170818 -0.09749341 -0.02282972
0.08397629 0.0883367 -0.11405819 -0.10762874 0.12911958 -0.16662581 -0.1178117 -0.09551926
0.046037797 -0.15669031 -0.099762656 -0.011134825 0.09561706 0.19605413 -0.056114417 0.15471601
0.14940913 -0.11690698 -0.067993775 0.042528845 0.07637664 0.021032676 -0.19264571 0.11963438
-0.17530769 0.1828126 -0.016553242 -0.22244805 0.02146405 -0.19874018 0.030008735 0.01611228
-0.09462886 0.04392402 -0.004923014 -0.13494992 -0.19888069 0.14915408 0.17833604 -0.025844665
-0.1385814 -0.083708666 -0.13245675 0.1546445 0.02526423 0.13348891 -0.15487339 0.11060737
-0.06653256 0.014308854 0.14481348 -0.04270887 -0.051505566 -0.21097547 0.019368982 0.021934625
-0.1505616 -0.052253477 -0.17279544 0.0024728668 0.08364904 0.041389015 0.20009789 -0.1352484
0.048148554 -0.02957099 0.104028255 0.16058752 0.03881209 0.015806077 0.017334804 -0.11722926
-0.20474924 0.03938987 0.14988723 0.20027065 0.0046742065 -0.211157 -0.17291735 0.017898934
-0.11665194 -0.04000127 0.07914613 -0.057995602 0.18732256 -0.05487463 -0.049974676 -0.12814187
0.124896094 -0.06276473 0.03764474 0.07442228 -0.13785739 -0.14201324 0.11728638 -0.08325185
-0.037006926 -0.15654814 -0.048116643 -0.11290209 0.034701847 -0.21778987 0.08954576 -0.026476376
0.021421924 0.08983646 -0.09670577 0.029322637 -0.1408489 -0.08997225 0.018769214 0.013282936
-0.17589907 0.09867212 0.081316 -0.117051095 -0.018878967 0.038444154 -0.15042734 -0.18387014
0.039877884 0.1763505 -0.14113966 -0.073275715 -0.15939312 0.13206883 -0.14674129 -0.10253197
0.18955518 -0.048464283 0.12654285 0.040388998 0.031226592 -0.15327042 -0.10788 0.06699936
0.10956529 0.120918304 0.03651726 -0.1565935 0.16149688 0.08441949 -0.007514696 -0.20927303
-0.15218237 -0.23822789 -0.015563359 -0.08331142 0.17830381 0.017517185 -0.10535 -0.017734658
-0.11260737 -0.050641224 0.07594903 0.06849611 -0.0046997964 0.12084168 -0.085292585 -0.03809063
-0.15098631 0.10355548 -0.092359066 -0.0009893153 -0.031167248 0.053787977 -0.14295745 -0.14055432
0.08874399 -0.049757656 -0.15954584 0.016144672 -0.072627455 0.055489004 -0.034063138 -0.113407776
0.055573136 -0.13308197 -0.10440674 -0.10958111 -0.07490649 0.04337885 -0.039409082 0.046625465
00000000: a52b b0bd 3430 c33d 8d04 04be 9b51 853d
00000010: af55 4dbd 6c77 a2bc 1b6a c2bd 439d e13d
00000020: 35d2 e73d 6d88 24be 55a0 013d 26b8 153b
00000030: 467a e8bc e8fe 0dbd c3e0 88bd 8467 09be
00000040: abb5 ec3c 57fb 303e 5a0f 49be 99a5 b83d
00000050: 5dfd 31be 411a ff3d 8679 673d 1d27 30bd
00000060: ad3d 18be 9944 d33d 9380 2dbe e474 843d
00000070: 1a18 3b3e ba1a 6bbd 893f 4dbc 19bf 09be
00000080: f99d adbd de74 cf3d 76a1 0fbe 3726 6ebd
00000090: 450f 1c3c ee54 b03d 11ca cebd 1170 1e3d
000000a0: ff38 96bd 886e 0a3e c4c4 b43d bebc d0bd
000000b0: d576 203d d705 b8bd 923d 783c bbd8 5bbe
000000c0: 8b34 2cbd 7a88 1c3e 9526 a5bc a3bb 573d
000000d0: aa6e 403e a078 78bd f092 fe3d d218 be3d
000000e0: e039 06be e662 2cbd a109 e6bd cc50 34be
000000f0: 1749 6d3d c5ef 09be c1e2 95bd 78e1 61bd
00000100: 07a7 45be eb7e e0bb a95a c83d 2723 73bd
00000110: 2bae 51be e5de 053c a0aa c7bd 6505 bbbc
00000120: c3fb ab3d dfe9 b43d 5797 e9bd 756c dcbd
00000130: ec37 043e f59f 2abe 4347 f1bd 9a9f c3bd
00000140: 2192 3c3d 6d73 20be 5d50 ccbd d76e 36bc
00000150: e1d2 c33d 6ac2 483e 3bd8 65bd e06d 1e3e
00000160: b5fe 183e ed6c efbd 5240 8bbd ba32 2e3d
00000170: 5b6b 9c3d b84c ac3c eb44 45be df02 f53d
00000180: dc83 33be 3a33 3b3e aa9a 87bc 6cc9 63be
00000190: 60d5 af3c 8c82 4bbe e1d4 f53c e6fd 833c
000001a0: c7cc c1bd ace9 333d 3c51 a1bb 5030 0abe
000001b0: 61a7 4bbe d9bb 183e b99d 363e 31b8 d3bc
000001c0: 48e8 0dbe 736f abbd bea2 07be 215b 1e3e
000001d0: eef6 ce3c 51b1 083e 2197 1ebe 1e86 e23d
000001e0: 3942 88bd af6f 6a3c fc49 143e 7fef 2ebd
000001f0: 80f7 52bd f409 58be b3ab 9e3c 3eb0 b33c
00000200: d22c 1abe be07 56bd 4af1 30be d20f 223b
00000210: 3050 ab3d 8787 293d 76e6 4c3e 8e7e 0abe
00000220: 6b37 453d dc3e f2bc c40c d53d 0e71 243e
00000230: 6df9 1e3d bf7b 813c b801 8e3c e515 f0bd
00000240: c9a9 51be 4657 213d 0a7c 193e c013 4d3e
00000250: 162a 993b 8a39 58be 3f11 31be c9a0 923c
00000260: 36e7 eebd 5fd8 23bd 5e17 a23d cc8c 6dbd
00000270: 7cd1 3f3e 38c4 60bd 3fb2 4cbd 9f37 03be
00000280: 86c9 ff3d cb8a 80bd 5f31 1a3d b56a 983d
00000290: 7d2a 0dbe eb6b 11be d733 f03d f27f aabd
000002a0: 9394 17bd 284e 20be f515 45bd 3639 e7bd
000002b0: 8623 0e3d 4f04 5fbe c463 b73d fce4 d8bc
000002c0: 087d af3c 2efc b73d ad0d c6bd 0736 f03c
000002d0: b23a 10be 5f43 b8bd e5c1 993c aca0 593c
000002e0: e31e 34be 9c14 ca3d 0189 a63d 7cb8 efbd
000002f0: 10a8 9abc 9e77 1d3d a009 1abe 7448 3cbe
00000300: fe56 233d 3a95 343e ea86 10be 9411 96bd
00000310: f337 23be 0d3d 073e 5943 16be 48fc d1bd
00000320: c11a 423e 7c82 46bd 7394 013e ef6e 253d
00000330: e9ce ff3c ecf2 1cbe 30f0 dcbd f636 893d
00000340: c463 e03d 04a4 f73d 1f93 153d 0c5a 20be
00000350: 705f 253e 20e4 ac3d d73d f6bb ab4b 56be
00000360: b2d5 1bbe 03f2 73be 75fd 7ebc 2e9f aabd
00000370: 4695 363e 3380 8f3c bec1 d7bd 4648 91bc
00000380: b19e e6bd 2c6d 4fbd 2a8b 9b3d b047 8c3d
00000390: c000 9abb d87b f73d e1ad aebd ec04 1cbd
000003a0: 289c 1abe e514 d43d c026 bdbd eaab 81ba
000003b0: 7552 ffbc c850 5c3d 7063 12be 79ed 0fbe
000003c0: 69bf b53d afce 4bbd fc5f 23be d541 843c
000003d0: b4bd 94bd 7048 633d ca85 0bbd 5642 e8bd
000003e0: a8a0 633d a446 08be 33d3 d5bd 106c e0bd
000003f0: 9368 99bd 05ae 313d 6b6b 21bd 58fa 3e3d

sequential_4/sequential_3/dense_Dense1/BiasAdd/ReadVariableOp f4 [100]
-0.004682192 0.005913862 0.018770752 0.004661075 0.0122415265 -0.0015698946 -0.0069175516 0.0048487205
0.004813725 0.021104818 -0.007519474 -0.005645472 0.020718511 0.011047706 0.0013828672 0.006713331
0.0031210626 0.006280209 0.008661056 0.0045745485 0.017307227 0.00065186934 0.0037741626 -0.008069429
-0.0068694856 0.005272989 0.018127112 0.008262193 0.000577513 -0.0055736927 0.010262463 0.007793903
0.009323334 0.008218434 0.006146459 -0.0037524637 0.017209737 -0.00446356 0.004878819 0.006803725
-0.007048925 -0.0071196733 -0.0043159593 -0.0020305826 0.010062899 0.0 0.008248734 0.0091484655
0.0 0.007853843 0.0105085755 0.007127096 -0.0015040977 -0.0067742113 0.0008157937 0.0060248864
0.0052451743 0.008562671 -0.008424908 -0.007513152 0.0023251446 0.0033012757 0.0121529335 0.0024309666
-0.00935729 0.021521516 0.0061007347 -0.010809198 0.02115609 -0.0059584863 -0.007903831 0.007651412
0.0064139166 0.008763298 0.007845398 -0.0072218324 0.0066508856 0.012015909 -0.005521256 0.0068866676
0.009056236 0.013043558 0.0028388598 -0.008347838 0.009219186 0.008304012 -0.0052293236 0.00080714154
-0.010216532 0.012335651 0.009173402 0.010208869 3.4086184e-05 -0.009246697 -0.0033967998 0.00017241687
-0.006961957 0.003742254 0.01782912 0.0019201074
00000000: 136d 99bb 12c9 c13b 1fc5 993c eebb 983b
00000010: af90 483c ecc4 cdba a1ac e2bb 04e2 9e3b
00000020: 74bc 9d3b 03e4 ac3c eb65 f6bb a7fd b8bb
00000030: deb9 a93c 7001 353c 5341 b53a 81fb db3b
00000040: be8a 4c3b 36ca cd3b 1ae7 0d3c 18e6 953b
00000050: e3c7 8d3c 36e2 2a3a f157 773b a335 04bc
00000060: 6c19 e1bb 0ac9 ac3b 4f7f 943c 265e 073c
00000070: 3e64 173a 86a3 b6bb e423 283c ff63 ff3b
00000080: e6c0 183c 9ca6 063c 3c68 c93b e5eb 75bb
00000090: 6ffb 8c3c 0e43 92bb 80de 9f3b c8f1 de3b
000000a0: abfa e6bb 264c e9bb e46c 8dbb 8613 05bb
000000b0: dcde 243c 0000 0000 b325 073c 72e3 153c
000000c0: 0000 0000 68ad 003c 292c 2c3c 6a8a e93b
000000d0: 2525 c5ba 34fa ddbb fdda 553a 696c c53b
000000e0: b6df ab3b 724a 0c3c a008 0abc e330 f6bb
000000f0: 7461 183b 375a 583b 191d 473c da50 1f3b
00000100: 524f 19bc e44d b03c ace8 c73b 1019 31bc
00000110: 894f ad3c 683f c3bb 127f 01bc b2b8 fa3b
00000120: d52b d23b f093 0f3c fc89 003c 1fa5 ecbb
00000130: acef d93b 60de 443c a7eb b4bb 8ea9 e13b
00000140: 9b60 143c a6b4 553c 2a0c 3a3b 5fc5 08bc
00000150: 120c 173c 8d0d 083c bf5a abbb 5a96 533a
00000160: 3e63 27bc 781b 4a3c 094c 163c 1a43 273c
00000170: c3f7 0e38 757f 17bc d89c 5ebb cdca 3439
00000180: 2121 e4bb 9b40 753b 600e 923c 1dac fb3a

sequential_4/sequential_1/model1/block_3_project/Conv2D f4 [16, 1, 1, 48]
0.24192753 0.5597496 0.30156177 -1.1374487 -0.06498133 0.3581337 -0.6177842 0.46387038
-0.4280022 0.016776353 -0.24021561 0.4866954 0.4260828 1.1867414 0.388506 0.019033587
1.0178417 -0.58007205 -1.25929 0.42770743 1.3593913 -0.68103147 3.8844163 -0.5386637
-0.67790806 0.071483985 -0.1314479 -0.49442035 0.5957341 0.54236054 -0.5971778 0.12434145
-0.076242 0.17827868 3.7983642 -0.5723617 2.484073 -0.3032719 0.63787705 1.4497694
0.11714399 0.023747088 -0.16068813 -0.30664787 0.46651644 0.7887605 -0.9111808 -0.5682374
0.46618846 -0.18161489 0.25353435 -1.1995293 0.5308369 0.24442494 0.039344963 0.059586868
-0.005976684 -0.12687023 0.6234318 4.3952117 2.7448823 -0.37569603 0.15273231 0.048318427
-0.55929893 -0.032172512 0.14508504 0.17092597 -0.5478917 -1.5408099 -0.7114948 0.42241195
0.16984582 0.042776957 0.5325246 0.636682 -0.9585423 -0.24335459 -0.5238465 -3.6868172
0.32390177 0.13497387 -0.417791 -0.5294973 0.37378016 3.663697 -0.51409507 -0.70545596
0.6564608 0.20995578 0.12609035 0.33935887 -0.17192566 0.29369724 0.075156815 -0.8124919
-0.42596003 0.2238993 1.331077 0.71356994 0.779188 0.32629064 2.3833554 1.0346762
-2.303225 -1.2661141 1.4692993 0.27607116 1.5034772 -1.1114553 1.3523058 1.3734514
-0.70759845 -0.98780566 3.0032773 0.9095815 -0.54111254 0.80080277 0.7705055 0.16727616
-0.2878114 0.8851057 1.1836491 0.6072145 -0.65780467 -0.38861215 -1.504629 0.46422637
-1.8098028 -0.7826892 0.07567428 -1.3264315 0.6385589 -0.84814644 -0.9998463 0.7220072
-1.170745 -0.9078935 1.2694429 1.5381854 -1.2071912 -1.5375049 -1.7882574 -0.60425395
-0.4914164 2.9422212 0.26716366 0.87306345 -0.89900887 0.28517166 0.1877673 -0.42274824
0.023569819 0.0033674552 0.2760101 0.3149888 0.882048 1.7035084 0.5432542 0.18039039
1.8332105 1.4502873 -0.26161414 0.96578825 -2.019873 -0.60477394 0.5413899 -1.4508559
-0.06466982 -0.4701667 0.5440368 1.3458083 -1.9404736 1.5710198 2.1624856 0.25156453
-0.8480835 0.31338224 -0.34579355 1.8543795 0.22499245 -0.13925427 0.897521 -1.8390464
0.94693846 1.31577 0.26903534 0.4466705 0.99267226 0.24218477 -0.44574377 1.4711694
0.43523183 1.7185798 -0.13232632 -2.8021145 0.44092882 0.16197892 -0.03234251 -0.041990556
0.09304303 -0.83018655 0.6818357 -0.90109414 0.15667222 0.71120447 -0.19796541 -0.80149865
0.72780085 1.1161003 0.2333115 0.088155724 3.3312504 1.3082905 0.8345084 -0.4604173
0.35410053 0.7737438 0.20815817 -3.8102398 3.2747512 -0.37646183 0.33242574 -0.24849479
-0.54432184 -0.15413842 -1.9631262 0.21649298 0.045315225 -0.10615986 0.21979731 -1.1406236
1.878996 0.34534037 1.4765106 1.5797983 -0.05063458 -0.41914588 -0.43290955 -0.08936287
-0.08615053 -2.203212 -0.11543609 0.2818277 -0.78630656 -0.16856182 0.12697661 -0.12050637
0.58691424 -0.38327 0.49363124 0.020825827 0.46111405 0.6012785 1.113739 -0.5742274
00000000: dabb 773e c04b 0f3f 4e66 9a3e eb97 91bf
00000010: ee14 85bd 4d5d b73e 1b27 1ebf 6b80 ed3e
00000020: 1b23 dbbe 906e 893c 15fb 75be 2430 f93e
00000030: 8627 da3e 24e7 973f 42ea c63e 53ec 9b3c
00000040: a348 823f 9a7f 14bf 6a30 a1bf 78fc da3e
00000050: 8900 ae3f 1458 2ebf 479a 7840 dde5 09bf
00000060: 628b 2dbf 3266 923d 479a 06be aa24 fdbe
00000070: 0882 183f 24d8 0a3f a5e0 18bf bba6 fe3d
00000080: c424 9cbd b08e 363e 6618 7340 4c86 12bf
00000090: 0dfb 1e40 7446 9bbe e94b 233f 0b92 b93f
000000a0: 30e9 ef3d 4189 c23c 6e8b 24be f300 9dbe
000000b0: 3edb ee3e 35ec 493f 2543 69bf 0278 11bf
000000c0: 41b0 ee3e 41f9 39be 41cf 813e 2d8a 99bf
000000d0: ede4 073f 884a 7a3e 2f28 213d 5c11 743d
000000e0: 0fd8 c3bb 45ea 01be 3a99 1f3f 93a5 8c40
000000f0: 27ac 2f40 3b5b c0be dc65 1c3e 8be9 453d
00000100: 372e 0fbf 53c7 03bd 2c91 143e 3807 2f3e
00000110: a142 0cbf 4239 c5bf 8624 36bf 6146 d83e
00000120: 10ec 2d3e e436 2f3d 8853 083f 97fd 223f
00000130: 0763 75bf f231 79be ce1a 06bf d0f4 6bc0
00000140: 74d6 a53e 9736 0a3e b4e8 d5be 238d 07bf
00000150: 1d60 bf3e 037a 6a40 bc9b 03bf c398 34bf
00000160: d10d 283f a6fe 563e d41d 013e 72c0 ad3e
00000170: 480d 30be 7c5f 963e d1eb 993d 78ff 4fbf
00000180: 6f17 dabe dc45 653e bb60 aa3f 85ac 363f
00000190: dd78 473f 910f a73e e588 1840 4570 843f
000001a0: 0a68 13c0 0710 a2bf 0012 bc3f 3359 8d3e
000001b0: f171 c03f 2b44 8ebf 5b18 ad3f 41cd af3f
000001c0: 2c25 35bf d5e0 7cbf b235 4040 55da 683f
000001d0: 5a86 0abf 6901 4d3f d93f 453f 714a 2b3e
000001e0: 045c 93be 4a96 623f d081 973f 6972 1b3f
000001f0: e365 28bf 2cf8 c6be af97 c0bf 14af ed3e
00000200: 9ea7 e7bf 525e 48bf 1efb 9a3d 82c8 a9bf
00000210: 9978 233f 2020 59bf edf5 7fbf 77d5 383f
00000220: f9da 95bf b56b 68bf 1b7d a23f 42e3 c43f
00000230: 3e85 9abf f6cc c4bf 9ee5 e4bf 63b0 1abf
00000240: ee9a fbbe 5a4d 3c40 adc9 883e 1681 5f3f
00000250: 7225 66bf 0502 923e 1246 403e 7572 d8be
00000260: 7e15 c13c 86b0 5c3b 3251 8d3e 3646 a13e
00000270: e6cd 613f 900c da3f b512 0b3f 42b8 383e
00000280: a4a6 ea3f 04a3 b93f 4af2 85be e63d 773f
00000290: 9945 01c0 77d2 1abf 8798 0a3f a5b5 b9bf
000002a0: 9c71 84bd b1b9 f0be ff45 0b3f 7243 ac3f
000002b0: 7061 f8bf 2d17 c93f 2a66 0a40 11cd 803e
000002c0: 001c 59bf a373 a03e da0b b1be 4f5c ed3f
000002d0: 6c64 663e ac98 0ebe f0c3 653f df65 ebbf
000002e0: 8f6a 723f 276b a83f 00bf 893e ffb1 e43e
000002f0: c51f 7e3f 49ff 773e 8738 e4be 474f bc3f
00000300: b5d6 de3e 6cfa db3f 8d80 07be d855 33c0
00000310: 6cc1 e13e cddd 253e 9479 04bd 4afe 2bbd
00000320: 588d be3d 1b87 54bf c98c 2e3f 1bae 66bf
00000330: af6e 203e 7f11 363f 72b7 4abe 042f 4dbf
00000340: 2851 3a3f 60dc 8e3f 36e9 6e3e fd8a b43d
00000350: 3533 5540 1076 a73f 58a2 553f d1bb ebbe
00000360: aa4c b53e 1314 463f 6a27 553e f8da 73c0
00000370: 8695 5140 9bbf c0be b533 aa3e 6b75 7ebe
00000380: ad58 0bbf 76d6 1dbe b847 fbbf 56b0 5d3e
00000390: 759c 393d 576a d9bd 8c12 613e f4ff 91bf
000003a0: f182 f03f 74d0 b03e 4dfe bc3f d536 ca3f
000003b0: 3566 4fbd 4a9a d6be 52a6 ddbe e103 b7bd
000003c0: b06f b0bd 6d01 0dc0 c269 ecbd b84b 903e
000003d0: 634b 49bf 789b 2cbe 2806 023e 0bcc f6bd
000003e0: 0340 163f f73b c4be 3cbd fc3e ed9a aa3c
000003f0: 2417 ec3e 63ed 193f 008f 8e3f 9100 13bf

sequential_4/sequential_1/model1/block_3_expand/Conv2D f4 [48, 1, 1, 8]
0.003110905 -0.03207764 -0.069387354 0.12287297 0.012231624 -0.050187428 0.0060046893 0.0011596823
-0.0017287238 0.13395578 -0.07262076 -0.051576212 0.022389261 -0.04981711 -0.0009571432 -0.043382738
-0.1595151 0.018408215 0.03999377 -0.060938586 0.13908279 0.017435461 -0.008120742 0.015740527
-0.0025628225 0.010317587 -0.016055685 -0.023790523 -0.019692836 -0.039270107 0.0123606585 0.09820853
0.10582611 0.009392261 -0.013296541 0.009753711 -0.047065 -0.01926702 0.00025551254 -0.007316199
-0.053106554 0.023987718 -0.06217058 0.0019379051 0.16925085 -0.06894229 -0.22711208 0.17012383
0.007837161 -0.009216336 -0.030389696 -0.013535856 -0.05494826 0.014534021 -0.08315577 -0.065135054
-0.024323031 0.0068626488 -0.043718997 -0.0065510273 0.083095245 -0.015883561 -0.11416778 0.07339789
0.02185236 -0.0011584032 -0.012750503 -0.014738534 -0.050629757 0.028737038 0.09055459 -0.08317986
0.019757714 -0.027851788 0.011757818 0.020158786 -0.11734142 0.035391208 -0.14235894 -0.13739078
-0.049068905 0.0038772025 0.005558076 -0.009500168 -0.06971376 0.0047259787 0.0067504863 -0.0031292364
0.09250593 -0.007828682 -0.010734802 0.013987052 0.03838981 0.004368835 -0.0045492686 0.021327812
-0.05256111 0.001526943 -0.0036745924 -0.0019329075 -0.08308571 -0.0098770885 0.008460954 -0.02073442
-0.004069447 -0.054357275 0.010668178 -0.019351577 -0.013419417 -0.009632422 -0.00021645088 0.008026797
-0.0031875984 0.0425743 -0.025476571 -0.00053804123 0.004038582 0.00950729 -0.0003386382 -0.0022720902
0.04197964 -0.004137989 0.044049595 0.02799079 -0.10059613 0.067007065 0.15102889 -0.14889444
0.0030693144 -0.104769535 0.23661025 0.09416233 0.0079265 -0.14339729 -0.0026885492 -0.03922038
0.019539822 0.0019583888 -0.005885956 0.012438621 0.09797512 0.0061404645 -0.0082256915 0.0003621065
-0.012345416 0.008954547 -0.019896397 -0.008517802 0.06615595 -0.0076621636 0.054069575 0.02258961
0.0032530886 0.068418056 0.007471296 0.06451157 -0.022231033 0.070128724 0.0066527794 0.04127648
0.012940068 -0.027546778 -0.00019238661 0.00817639 -0.065288976 0.04739267 0.005056394 0.03529858
0.050856337 0.0062635196 -0.003131152 0.00022471666 0.09485951 -0.0017288477 -0.0066567534 0.024819838
0.0060843765 -0.11168384 0.017385425 -0.044014096 0.010195117 -0.052916277 -0.0028850676 -0.0099211335
0.008617072 0.07220761 0.028775115 -0.025432851 0.029801317 -0.14963298 -0.009091003 -0.08193974
0.03980876 0.023685673 -0.050839815 -0.040866293 -0.00652354 0.09663357 0.5634448 0.10211347
-0.008794863 -0.0047048433 -0.0060168756 -0.005284959 0.029586047 -0.007033319 -0.0008679258 0.0001293257
-0.086001135 -0.016463589 0.0033701851 0.006735806 0.011255028 0.010370327 0.0042284634 0.008815346
-0.02916658 -0.04035479 0.0202141 0.030966535 0.07381402 0.05625458 -0.003770718 0.0191817
-0.032239076 -0.060787745 0.022794185 0.05285832 0.098631926 0.08161048 -0.008914225 0.037002526
-0.013567442 0.046697132 0.016006788 0.04236057 -0.018441014 0.027033022 0.0024509751 0.005820156
-0.018474307 -0.0045111743 -0.0019790928 0.007776349 0.04326558 0.009622356 -7.6084274e-05 -0.0002242442
0.14134786 0.039828584 0.04949724 -0.09555843 0.013114247 0.020906262 -0.0134484 -0.0030047032
00000000: 53e0 4b3b d863 03bd f51a 8ebd d3a4 fb3d
00000010: 2667 483c 5591 4dbd fcc2 c43b 7b00 983a
00000020: 5896 e2ba b42b 093e 31ba 94bd 9441 53bd
00000030: af69 b73c 070d 4cbd cbe8 7aba 19b2 31bd
00000040: ed57 23be d3cc 963c 82d0 233d bd9a 79bd
00000050: b86b 0e3e d0d4 8e3c dc0c 05bc 47f2 803c
00000060: 07f5 27bb 190b 293c 3687 83bc 58e4 c2bc
00000070: df52 a1bc b1d9 20bd 5c84 4a3c 8e21 c93d
00000080: 5cbb d83d ffe1 193c bcd9 59bc 07ce 1f3c
00000090: 3bc7 40bd dfd5 9dbc 50f6 8539 babc efbb
000000a0: 4286 59bd e481 c43c 94a6 7ebd 4e01 fe3a
000000b0: 1850 2d3e 9e31 8dbd 1290 68be f134 2e3e
000000c0: 7067 003c 1d00 17bc d0f3 f8bc 7fc5 5dbc
000000d0: 6d11 61bd 1a20 6e3c 934d aabd 8765 85bd
000000e0: 1841 c7bc 12e0 e03b b112 33bd 00aa d6bb
000000f0: d72d aa3d 3e1e 82bc ccd0 e9bd a251 963d
00000100: b803 b33c 90d5 97ba 7ce7 50bc e479 71bc
00000110: 2661 4fbd f069 eb3c af74 b93d 345a aabd
00000120: eeda a13c 6f29 e4bc dda3 403c 0a24 a53c
00000130: b350 f0bd 5ff6 103d 8bc6 11be 2bb0 0cbe
00000140: 7afc 48bd aa18 7e3b 8520 b63b 98a6 1bbc
00000150: 16c6 8ebd 62dc 9a3b 2f33 dd3b e013 4dbb
00000160: c073 bd3d df43 00bc 06e1 2fbc f329 653c
00000170: a23e 1d3d 7228 8f3b 0812 95bb aab7 ae3c
00000180: 524a 57bd b423 c83a 6ed1 70bb 9d59 fdba
00000190: d728 aabd 83d3 21bc d09f 0a3c 3bdb a9bc
000001a0: ff58 85bb bca5 5ebd 95c9 2e3c 3387 9ebc
000001b0: 1ddd 5bbc 4ed1 1dbc 17f7 62b9 d482 033c
000001c0: 07e7 50bb 6462 2e3d 3eb4 d0bc 560b 0dba
000001d0: 1556 843b 77c4 1b3c 408b b1b9 59e7 14bb
000001e0: d8f2 2b3d f897 87bb 596d 343d f14c e53c
000001f0: 5805 cebd 003b 893d 51a7 1a3e c977 18be
00000200: 8d26 493b 6991 d6bd f549 723e 2ed8 c03d
00000210: 27de 013c bdd6 12be 5f32 30bb 8da5 20bd
00000220: fa11 a03c 5058 003b fade c0bb 5ccb 4b3c
00000230: 2ea7 c83d f335 c93b 0dc5 06bc 1dd9 bd39
00000240: 6d44 4abc 18b6 123c c5fd a2bc 408e 0bbc
00000250: c57c 873d e312 fbbb 0f78 5d3d d90d b93c
00000260: c531 553b c41e 8c3d c6d1 f43b a41e 843d
00000270: db1d b6bc a69f 8f3d 8fff d93b 8711 293d
00000280: 9402 543c c8a9 e1bc 63bb 49b9 44f6 053c
00000290: 3ab6 85bd d11e 423d 1bb0 a53b 3e95 103d
000002a0: bc4e 503d 363e cd3b 0334 4dbb eba1 6b39
000002b0: b445 c23d 819a e2ba e520 dabb f952 cb3c
000002c0: 735f c73b 7fba e4bd e16b 8e3c 2048 34bd
000002d0: 6c09 273c bdbe 58bd 6713 3dbb 408c 22bc
000002e0: 9f2e 0d3c 95e1 933d cab9 eb3c 8e58 d0bc
000002f0: e421 f43c 6339 19be 6ef2 14bc 06d0 a7bd
00000300: 830e 233d 7508 c23c 693d 50bd 6a63 27bd
00000310: 6bc3 d5bb d2e7 c53d eb3d 103f de20 d13d
00000320: 5418 10bc 162b 9abb 3629 c5bb 732d adbb
00000330: 705e f23c c277 e6bb 8485 63ba 9a9b 0739
00000340: 5d21 b0bd a6de 86bc 53de 5c3b 09b8 dc3b
00000350: 0267 383c 4ee8 293c ec8e 8a3b 3e6e 103c
00000360: c0ee eebc 104b 25bd 0a98 a53c 88ad fd3c
00000370: ce2b 973d 346b 663d 261e 77bb f122 9d3c
00000380: 1f0d 04bd 92fc 78bd dfba ba3c f781 583d
00000390: 89ff c93d 6523 a73d f80c 12bc f68f 173d
000003a0: fa49 5ebc 7e45 3f3d ab20 833c 4782 2d3d
000003b0: 9c11 97bc 5b74 dd3c 8aa0 203b 02b7 be3b
000003c0: 6e57 97bc 79d2 93bb abb3 01bb bed0 fe3b
000003d0: 4037 313d 16a7 1d3c 6f8f 9fb8 1823 6bb9
000003e0: 7ebd 103e 4c23 233d 9ebd 4a3d 23b4 c3bd
000003f0: 23dd 563c 9c43 ab3c ae56 5cbc 8eea 44bb

sequential_4/sequential_1/model1/block_2_project/Conv2D f4 [8, 1, 1, 48]
0.16278358 -0.11943496 0.24723265 -0.10025679 -0.13789721 0.1529842 -0.13712895 -0.04531129
0.03562774 0.3281449 -0.11292337 -0.08827414 -0.0982409 0.3793695 -0.48757815 -0.47938666
-0.31490743 -0.018992182 0.92459804 -0.118308075 -0.14390904 0.33552763 -0.3227641 -0.054188613
0.0767187 0.19011836 0.29654196 -0.7455581 -0.11599267 0.62985855 0.4383732 -0.4344959
0.045572035 -0.013215392 0.6477143 0.38802138 0.035599947 -0.4025076 -4.469021 0.6395679
0.039213914 -0.0483074 -0.048133913 -0.20119646 1.3164624 0.0919951 0.60058266 -0.60101944
-1.3009923 -0.25105247 -0.33442685 0.11369699 1.9813694 -2.3678403 0.9052538 -0.039139625
-2.445158 -0.940485 0.22160423 -0.89774054 0.60967046 -1.1292279 0.64234316 -0.3212105
-0.39515018 2.5736136 -0.3476928 0.6220152 1.3704268 0.18015347 -0.16060202 -2.2218575
-0.26378015 1.7275753 -0.49404794 0.12846813 0.33331817 -0.7307303 -0.32836968 -0.85551596
-0.046567086 -0.7250692 -0.45026124 2.6503963 -2.486624 0.42032966 -0.039319016 0.20484816
-0.35347655 0.8960329 -0.25100088 1.0361253 -0.5612776 -0.6764121 -0.0569239 -0.02620842
0.25120136 -0.11408789 -0.72227687 -0.3264656 0.011717256 -1.0830642 0.8885879 1.066413
-0.7507702 -0.18313211 2.4986184 -1.7697185 0.9733502 -0.4587576 0.21567851 0.1357788
-1.2365552 -1.3910573 0.6427017 1.9536568 -2.1397393 1.0090766 -0.69354874 1.4155687
1.3901258 -2.052811 0.9250319 0.08922373 0.19563438 -0.45533147 -1.2046503 -0.18815517
-0.8753383 2.2568388 -2.1876416 -0.31389344 -0.17521821 0.97254974 -0.0813735 0.08854327
-0.9983334 -0.49396968 -1.3450996 1.1976883 0.22213945 1.2982723 -0.87452567 0.536806
-0.7494918 0.24724226 -0.38972145 -0.060515746 0.23995818 -1.9975396 0.85788214 0.4729638
-1.1987815 -1.4261549 1.1188383 -0.48620245 0.46802065 -0.1430895 0.074785165 -0.02280508
-0.5704383 -0.02224972 0.34887683 1.1774138 -1.3324364 -0.008099028 -0.097283155 -0.18365721
0.16220829 0.058105763 0.46892217 0.1830413 -0.37939635 -0.46487716 -0.7930969 -0.08384176
-0.5360517 0.7611123 3.2983234 -1.6467648 -0.2957502 0.013705539 -0.33612302 0.12484662
-0.49239555 0.05860121 -0.5030346 0.9548783 0.48594072 0.22870259 -0.012623723 0.20745286
0.17035368 0.027639551 0.5071395 -0.9217277 0.6626708 -0.23667085 0.038830847 0.46235058
-0.29602295 0.14622915 0.16724506 -0.1851685 -0.3863838 0.12578526 1.8199188 0.97923756
-0.55193466 0.08470058 -1.3404593 -0.50186145 1.2961949 -1.1550597 0.46936056 0.63147986
-0.1280692 -0.23375021 -1.2061313 0.716058 -2.4661982 -1.2565397 -0.14134786 1.7877815
-0.36588538 -0.527319 0.4385965 0.06138584 -0.6081884 0.14805251 -0.74343836 -2.0355535
-0.4102107 -0.7165449 -0.41161388 -0.14934282 -2.7576032 0.07904944 -0.503852 1.878486
-0.83013225 0.5107934 0.7043647 -0.49731323 -0.36577693 -1.4591111 0.11054484 0.31082335
-0.787567 -2.2071013 -0.8140732 2.245336 -0.85903066 1.0246376 0.5912276 0.5861827
00000000: bdb0 263e 519a f4bd 8e2a 7d3e 6f53 cdbd
00000010: ed34 0dbe e4a7 1c3e 886b 0cbe 5598 39bd
00000020: 65ee 113d 9c02 a83e 5e44 e7bd 13c9 b4bd
00000030: 8632 c9bd b83c c23e d8a3 f9be 2b72 f5be
00000040: 8c3b a1be 7e95 9bbc 75b2 6c3f 814b f2bd
00000050: e45c 13be 47ca ab3e 5641 a5be e1f4 5dbd
00000060: b21e 9d3d 63ae 423e 59d4 973e e5dc 3ebf
00000070: 918d edbd 693e 213f 7472 e03e 3f76 debe
00000080: bea9 3a3d 5f85 58bc 9bd0 253f bdaa c63e
00000090: 40d1 113d 7a15 cebe 3802 8fc0 b9ba 233f
000000a0: c59e 203d fbdd 45bd 1128 45bd 7206 4ebe
000000b0: d781 a83f ed67 bc3d c9bf 193f 69dc 19bf
000000c0: ea86 a6bf f389 80be ff39 abbe f8d9 e83d
000000d0: 839d fd3f b28a 17c0 b7be 673f df50 20bd
000000e0: 787d 1cc0 a0c3 70bf 38ec 623e 53d2 65bf
000000f0: 5d13 1c3f 8a8a 90bf 9a70 243f b475 a4be
00000100: 2051 cabe 16b6 2440 ca04 b2be 633c 1f3f
00000110: 256a af3f 277a 383e db74 24be ea32 0ec0
00000120: 310e 87be 3021 dd3f daf3 fcbe 268d 033e
00000130: aea8 aa3e 2411 3bbf 1220 a8be 1803 5bbf
00000140: 21bd 3ebd 239e 39bf a488 e6be 18a0 2940
00000150: d924 1fc0 7335 d73e fa0c 21bd b7c3 513e
00000160: e1fa b4be 6a62 653f 3083 80be c19f 843f
00000170: e4af 0fbf 5829 2dbf 0929 69bd 0ab3 d6bc
00000180: 779d 803e e9a6 e9bd 23e7 38bf 8026 a7be
00000190: bcf9 3f3c d9a1 8abf 7f7a 633f 3980 883f
000001a0: 7a32 40bf fc86 3bbe 5de9 1f40 2386 e2bf
000001b0: 7b2d 793f 47e2 eabe d4da 5c3e 9909 0b3e
000001c0: 7147 9ebf 2a0e b2bf 1988 243f 6d11 fa3f
000001d0: 7df1 08c0 6c29 813f 698c 31bf 5b31 b53f
000001e0: a4ef b13f 4161 03c0 e4ce 6c3f eeba b63d
000001f0: 6154 483e 3521 e9be fb31 9abf c0ab 40be
00000200: 2c16 60bf 0c70 1040 5202 0cc0 a4b6 a0be
00000210: 676c 33be 05f9 783f 26a7 a6bd 2d56 b53d
00000220: c792 7fbf 98e9 fcbe 392c acbf da4d 993f
00000230: 8678 633e c92d a63f eae0 5fbf 1e6c 093f
00000240: b2de 3fbf 132d 7d3e 9289 c7be 5cdf 77bd
00000250: 99b7 753e 61af ffbf 2a9e 5b3f 5028 f23e
00000260: ac71 99bf 3e8c b6bf 1836 8f3f 87ef f8be
00000270: 67a0 ef3e 0e86 12be f728 993d b8d1 babc
00000280: 3f08 12bf 0b45 b6bc fc9f b23e 7fb5 963f
00000290: 478d aabf c9b1 04bc 643c c7bd a310 3cbe
000002a0: ee19 263e 4f00 6e3d 9116 f03e 2e6f 3b3e
000002b0: 3d40 c2be 6104 eebe 6608 4bbf 3bb5 abbd
000002c0: af3a 09bf 41d8 423f bb17 5340 30c9 d2bf
000002d0: 926c 97be 328d 603c 5118 acbe 96af ff3d
000002e0: 451b fcbe d307 703d e0c6 00bf e772 743f
000002f0: 39cd f83e 0331 6a3e bbd3 4ebc 866e 543e
00000300: 3271 2e3e 576c e23c e5d3 013f 59f6 6bbf
00000310: cba4 293f d859 72be 180d 1f3d 37b9 ec3e
00000320: 5290 97be 18bd 153e 4a42 2b3e d09c 3dbe
00000330: 19d4 c5be dacd 003e 19f3 e83f 50af 7a3f
00000340: 974b 0dbf 7f77 ad3d 2c94 abbf fe79 00bf
00000350: b7e9 a53f ffd8 93bf 0750 f03e aaa8 213f
00000360: 9324 03be 375c 6fbe 8362 9abf 944f 373f
00000370: 31d6 1dc0 4bd6 a0bf 7ebd 10be 06d6 e43f
00000380: 5455 bbbe 61fe 06bf b88f e03e b86f 7b3d
00000390: 3cb2 1bbf 149b 173e fa51 3ebf 8246 02c0
000003a0: 2307 d2be 7d6f 37bf 0ebf d2be 53ed 18be
000003b0: 927c 30c0 ace4 a13d 72fc 00bf 3b72 f03f
000003c0: 8c83 54bf 5bc3 023f 3f51 343f d79f febe
000003d0: 1d47 bbbe 27c4 babf 5565 e23d 3d24 9f3e
000003e0: fe9d 49bf 2641 0dc0 1a67 50bf 96b3 0f40
000003f0: 6fe9 5bbf 5327 833f b15a 173f 1210 163f

sequential_4/sequential_1/model1/block_2_expand/Conv2D f4 [48, 1, 1, 8]
-0.0075068586 0.10452084 -0.018122949 0.09740542 -0.021602483 0.12916909 -0.010356789 0.029571703
0.03472062 0.16128518 0.06882917 -0.036368757 -0.121526375 -0.27067497 0.12598374 0.056944307
0.002515096 0.0035268706 -0.0011290712 0.0016335525 -0.019425945 -0.0010145333 0.010242166 0.036354452
0.006118302 0.03135744 0.0049093757 -0.0076868003 -0.060229447 -0.054647323 0.0915582 0.15030819
-0.04132811 0.067408115 -0.051160023 0.0020103464 0.039273445 -0.04434353 -0.4409014 0.24637444
-0.0014510013 0.039871532 0.030560875 0.06864678 -0.01001533 0.06033471 -0.0014324366 0.027821248
-0.137563 0.0002080514 -0.004779283 0.009322894 0.05743993 -0.017110337 -0.0022690457 -0.0055246293
0.0074496246 -0.046310324 0.046978176 0.016179647 -0.015991515 0.059642255 0.0012414451 -0.11525994
-0.0028378386 0.062717 0.0013035138 0.048883013 -0.006059057 0.048749175 0.0062329727 0.028876154
0.0032959038 -0.103723675 -0.0921991 -0.25172657 0.03590689 -0.26816308 0.008550567 -0.08608772
0.00096052774 -0.21516778 -0.44203067 -0.27045652 0.017300922 0.27190164 -0.016743254 0.04192836
-0.003323698 0.19273971 0.27820936 0.08376893 0.018755568 -0.31182927 -0.023263952 -0.06845317
0.019072048 -0.17460516 -0.033612225 -0.12230624 -0.10789214 -0.009623158 -0.14647022 -0.2946642
0.06661688 0.086309515 -0.01494854 -0.046144027 -0.06912141 0.020304177 0.5399173 -0.4863901
0.0527358 0.18666096 -0.06091107 -0.0066830665 -0.052444663 0.009133966 0.27944157 -0.19058545
0.035664063 -0.0750821 0.09709872 0.039432295 -0.15709879 0.015812129 0.04573259 -0.073564164
0.04382901 0.018845392 -0.028598787 -0.007790037 0.07187524 -0.010082152 -0.030272614 0.019215431
0.011499418 -0.096389554 0.05534105 0.015546784 -0.0066696536 0.0053646998 0.005051902 0.025784189
0.0038764514 -0.0066008237 0.005945367 0.002010402 -0.024465846 -0.0043547214 0.035461117 0.009537371
-0.005207418 0.051701088 0.024103472 0.07548795 -0.017004296 0.06423669 0.00046668874 0.032858245
-0.005912636 0.020267066 0.004618562 -0.0012447218 0.030571448 -0.021549564 -0.040559985 -0.015655419
0.013827374 -0.010549237 0.017282305 0.001910866 -0.025391264 0.018084092 0.10507324 -0.039078347
0.0029411695 0.03865746 -0.09662647 -0.08379196 0.070637755 -0.040660337 0.2059725 -0.0703889
0.008351776 0.26453462 -0.22048163 -0.037084457 -0.0066738515 0.07065548 -0.008117592 -0.03360006
0.13181812 -0.031891048 0.0054263407 -0.00836796 0.031476777 0.0047618714 -0.01590576 0.026964743
-0.00034445876 -0.20176099 -0.023078894 -0.104691654 0.020728644 -0.048329342 0.021037167 0.0019486536
0.03908693 -0.01979199 0.00876344 -0.034237932 -0.21322063 0.02668409 0.08385441 -0.07226016
-0.0046340353 -0.019634012 0.008441217 0.003336111 -0.05317858 0.021232165 -0.17326073 0.040811542
-0.007889279 -0.019007929 0.012782888 0.009687422 0.11326676 0.0022275476 -0.11247432 0.06774686
0.020805283 0.0072862385 0.023972038 -0.0012226877 -0.11576775 -0.00568645 -0.044398926 0.00646129
-0.16813135 0.013205603 -0.04547196 0.015156901 0.02746147 -0.017715435 -0.023356546 0.00957068
0.042093128 -0.083654895 -0.050267186 -0.15779363 -0.11341069 -0.058036994 -0.10255375 -0.09839673
00000000: 18fc f5bb 060f d63d 9476 94bc 7e7c c73d
00000010: b1f7 b0bc e744 043e 86af 29bc 5b40 f23c
00000020: 3537 0e3d f127 253e 4ff6 8c3d 68f7 14bd
00000030: d2e2 f8bd e995 8abe e201 013e 6f3e 693d
00000040: 4fd4 243b 1223 673b 58fd 93ba ed1c d63a
00000050: 2923 9fbc 17fa 84ba c2ce 273c 68e8 143d
00000060: 097c c83b a970 003d d4de a03b 8ee1 fbbb
00000070: 27b3 76bd dfd5 5fbd de82 bb3d 64ea 193e
00000080: aa47 29bd 440d 8a3d 2c8d 51bd 04c0 033b
00000090: 31dd 203d 90a1 35bd d4bd e1be 9549 7c3e
000000a0: 862f beba 5550 233d cd5a fa3c af96 8c3d
000000b0: 5717 24bc 8721 773d 99c0 bbba 63e9 e33c
000000c0: 51dd 0cbe 5f28 5a39 889b 9cbb 0dbf 183c
000000d0: 2246 6b3d fa2a 8cbc 45b4 14bb f307 b5bb
000000e0: fb1b f43b e5af 3dbd 306c 403d 2e8b 843c
000000f0: a300 83bc 704b 743d fcb7 a23a 670d ecbd
00000100: 08fb 39bb c571 803d aada aa3a 8e39 483d
00000110: 0e8b c6bb 37ad 473d f73d cc3b af8d ec3c
00000120: 1700 583b 146d d4bd e2d2 bcbd 4ee2 80be
00000130: 1a13 133d ac4c 89be ad17 0c3c c24e b0bd
00000140: edcb 7b3a f154 5cbe d851 e2be 4779 8abe
00000150: aaba 8d3c b136 8b3e 2629 89bc 12bd 2b3d
00000160: 66d2 59bb 8f5d 453e 7571 8e3e 0b8f ab3d
00000170: 47a5 993c 16a8 9fbe 0b94 bebc 2d31 8cbd
00000180: fc3c 9c3c b2cb 32be f9ac 09bd b27b fabd
00000190: 8ef6 dcbd 73aa 1dbc 4afc 15be 3ade 96be
000001a0: 6e6e 883d 0bc3 b03d b9ea 74bc 8501 3dbd
000001b0: 878f 8dbd f254 a63c 0538 0a3f 2008 f9be
000001c0: 7f01 583d 0d24 3f3e e37d 79bd a0fd dabb
000001d0: 37d0 56bd a1a6 153c f712 8f3e d528 43be
000001e0: 7b14 123d a5c4 99bd b2db c63d c283 213d
000001f0: 81de 20be 7088 813c 1952 3b3d cfa8 96bd
00000200: 0c86 333d a761 9a3c 0148 eabc 9143 ffbb
00000210: 5333 933d 9c2f 25bc 46fe f7bc ae69 9d3c
00000220: 0e68 3c3c e367 c5bd 4cad 623d f0b7 7e3c
00000230: 1c8d dabb 5dca af3b 6d8a a53b 5d39 d33c
00000240: 100c 7e3b b94b d8bb 5ad1 c23b f3c0 033b
00000250: 996c c8bc 0db2 8ebb ad3f 113d a242 1c3c
00000260: fda2 aabb 85c4 533d a574 c53c 6d99 9a3d
00000270: 984c 8bbc 878e 833d e7ad f439 5e96 063d
00000280: c9be c1bb 1e07 a63c 4e57 973b ef25 a3ba
00000290: f970 fa3c b688 b0bc 3a22 26bd cb3f 80bc
000002a0: 368c 623c b5d6 2cbc 9f93 8d3c 0676 fa3a
000002b0: 5701 d0bc 1725 943c a430 d73d 9e10 20bd
000002c0: a3c0 403b 4957 1e3d 19e4 c5bd 1e9b abbd
000002d0: 87aa 903d 748b 26bd 74ea 523e 0e28 90bd
000002e0: e3d5 083c 1571 873e f0c5 61be dfe5 17bd
000002f0: 53b0 dabb d2b3 903d a6ff 04bc 37a0 09bd
00000300: 54fb 063e 30a0 02bd 72cf b13b c519 09bc
00000310: cbed 003d 7909 9c3b cc4c 82bc 2ae5 dc3c
00000320: 7998 b4b9 6f9a 4ebe f30f bdbc 9468 d6bd
00000330: 1ecf a93c fdf4 45bd 2356 ac3c f769 ff3a
00000340: 9e19 203d d022 a2bc 8894 0f3c 133d 0cbd
00000350: 8256 5abe 9898 da3c dcbb ab3d 23fd 93bd
00000360: 1bd9 97bb 82d7 a0bc 084d 0a3c a8a2 5a3b
00000370: c8d1 59bd 14ef ad3c 436b 31be 012a 273d
00000380: 0942 01bc 84b6 9bbc 516f 513c feb7 1e3c
00000390: 67f8 e73d 0cfc 113b f058 e6bd debe 8a3d
000003a0: d76f aa3c 66c1 ee3b 0261 c43c 9742 a0ba
000003b0: a417 edbd 6655 babb a6db 35bd 3bb9 d33b
000003c0: a02a 2cbe 505c 583c ce40 3abd a754 783c
000003d0: e0f6 e03c f61f 91bc 3a56 bfbc 57ce 1c3c
000003e0: d869 2c3d 4253 abbd f7e4 4dbd a794 21be
000003f0: dd43 e8bd 33b8 6dbd b307 d2bd 3a84 c9bd

sequential_4/sequential_1/model1/block_1_project/Conv2D f4 [8, 1, 1, 48]
-0.4780869 0.043242514 1.5280174 -0.17594248 0.495816 -0.26838136 -0.21456519 4.706531
0.08750203 -0.069379665 1.3969432 -0.17328882 -0.27873704 -0.22316568 -0.009980786 4.0932603
-0.09048865 -0.09874112 0.5422863 -0.10479289 0.076802954 -0.12487417 -2.6023667 0.11254599
0.0077468273 0.40607342 0.020487284 -4.199048 0.1265429 -0.15487303 -1.527595 -0.018266672
-0.11283722 -0.13050862 -0.051783238 -0.024067119 -0.048362803 0.024277408 0.049439073 -1.8089665
0.22302206 0.02522054 -0.17032282 -0.026190134 -0.01940252 0.06340919 0.08803958 1.3680549
0.89607364 0.7370707 0.08406956 -4.527773 0.9635397 -0.31585073 0.93330014 -0.06964592
1.9216098 0.22412254 0.60342467 -0.6735513 -1.0111926 1.2699656 0.33235598 -0.0928432
1.0948507 1.2186629 -1.116627 -0.94910717 0.6659117 -4.250408 -0.34222472 1.3083018
0.79081064 -0.40669084 -0.8076562 -0.11230641 0.38145062 -1.2756547 0.7383922 0.23739779
-1.0628716 1.5646954 0.46307266 1.3559535 -2.4952943 1.4463944 -0.7883341 -0.32506588
-0.01907772 0.3046561 0.507244 0.062088747 0.9504117 0.26000717 2.3450625 0.19280875
0.3948257 2.260928 0.8287867 3.2411945 2.1219196 -0.00825038 0.11994261 -0.35533854
1.5490879 -1.6927729 -0.46459326 0.37515718 1.1552646 -0.34951094 -1.1922736 0.14078629
-1.3546454 2.2679935 -2.0464363 1.5916398 3.202792 -1.2090913 -0.49914083 0.015182507
3.6944294 0.34271103 -1.7940274 -0.5267703 2.2574666 2.1742284 1.8287599 -0.64847213
1.6867204 0.9419792 -0.051351193 -7.911075e-05 0.32329163 3.5345478 -1.7414767 -0.4409158
0.28122866 2.2719514 -0.57330227 1.4584775 1.972557 1.2916149 -1.1706367 0.59395784
0.37711936 1.2486811 -0.77674526 0.6383024 -2.691685 -0.2095085 0.33363518 0.15715165
0.81399053 0.72424036 0.025894683 0.31844866 0.09428616 0.32978162 -0.4431874 -0.0075031505
-0.661552 1.4540129 3.0092297 0.4012481 1.3195244 -0.972838 0.68974113 -0.1291458
1.5287992 0.5988185 -0.9047502 0.24756059 0.8924709 0.61136514 -2.3519251 1.2397636
0.6493924 2.824332 1.2551843 1.3541611 -0.4558101 1.7840158 -0.9627171 1.1070969
-0.7097447 0.9129693 -0.2284658 0.82655483 1.2874944 0.51852614 -0.29495344 -0.5174325
0.8597287 -0.019058656 0.30212897 0.46592087 0.69514304 1.5244061 0.45554847 1.3504072
0.051074877 0.069965646 -2.8080673 1.1471313 0.11817356 0.551499 -0.69967383 -1.1657205
-0.4696971 0.0036359376 -0.44603616 0.043598518 0.21332373 0.11841807 -0.29537678 -0.28543597
-0.041116722 -1.0564994 -0.30090573 -1.241325 0.13091126 0.094907135 0.0020723166 -0.006387082
0.4404543 -0.012657834 0.16029505 -0.89201087 -0.3728885 -0.2558337 -0.31352124 6.136751
-0.8854995 0.17824163 -1.1764244 0.72803116 0.13372387 0.06282216 -0.5672928 3.1187606
-0.5397092 -0.7978776 0.9214206 0.2582702 1.5183299 -0.74694586 -0.81246513 -0.19815156
-0.95677644 3.5156472 -0.08892668 0.5404831 -0.17929392 0.14293927 -0.78854406 -0.22472192
00000000: cec7 f4be 101f 313d 1396 c33f 442a 34be
00000010: 98db fd3e 4869 89be fab6 5bbe e79b 9640
00000020: 4434 b33d ed16 8ebd 09cf b23f a072 31be
00000030: 9fb6 8ebe 8b85 64be 7386 23bc fdfb 8240
00000040: 1d52 b9bd c938 cabd 46d3 0a3f a89d d6bd
00000050: de4a 9d3d 07be ffbd 2d8d 26c0 837e e63d
00000060: 19d9 fd3b dbe8 cf3e f3d4 a73c 9a5e 86c0
00000070: 7694 013e 0997 1ebe 3c88 c3bf fda3 95bc
00000080: 3317 e7bd 0da4 05be a91a 54bd 6828 c5bc
00000090: 1318 46bd 6ae1 c63c a080 4a3d 378c e7bf
000000a0: e55f 643e 4e9b ce3c 1b69 2ebe b18c d6bc
000000b0: 09f2 9ebc addc 813d 184e b43d 6c1c af3f
000000c0: 1565 653f aab0 3c3f a92c ac3d 84e3 90c0
000000d0: 8aaa 763f 30b7 a1be c2ec 6e3f 85a2 8ebd
000000e0: 4ff7 f53f 6180 653e 0a7a 1a3f dc6d 2cbf
000000f0: c26e 81bf 3c8e a23f 902a aa3e 9324 bebd
00000100: 1124 8c3f 25fd 9b3f a2ed 8ebf b0f8 72bf
00000110: 3079 2a3f 5803 88c0 1438 afbe 6f76 a73f
00000120: 9172 4a3f c839 d0be 8fc2 4ebf e700 e6bd
00000130: 7f4d c33e a748 a3bf 4507 3d3f 6818 733e
00000140: 2d0c 88bf f047 c83f dc17 ed3e e28f ad3f
00000150: e7b2 1fc0 7423 b93f 43d0 49bf 096f a6be
00000160: e148 9cbc e2fb 9b3e beda 013f c550 7e3d
00000170: 2e4e 733f a91f 853e 8115 1640 a86f 453e
00000180: 9826 ca3e 0bb3 1040 5d2b 543f bb6f 4f40
00000190: 88cd 0740 9a2c 07bc 79a4 f53d efee b5be
000001a0: 8348 c63f c8ac d8bf 2bdf edbe 9a14 c03e
000001b0: b6df 933f 19f3 b2be 6c9c 98bf 482a 103e
000001c0: 0565 adbf ce26 1140 d0f8 02c0 daba cb3f
000001d0: 8bfa 4c40 81c3 9abf 638f ffbe 0dc0 783c
000001e0: 8871 6c40 d277 af3e b1a2 e5bf 6bda 06bf
000001f0: 557a 1040 8f26 0b40 ce14 ea3f 4502 26bf
00000200: 74e6 d73f 8d25 713f a155 52bd 43e8 a5b8
00000210: 7b86 a53e 0836 6240 b5e8 debf b7bf e1be
00000220: 34fd 8f3e a767 1140 f0c3 12bf 64af ba3f
00000230: bf7c fc3f a353 a53f 6cd7 95bf 9f0d 183f
00000240: ca15 c13e c8d4 9f3f c7d8 46bf c967 233f
00000250: 9144 2cc0 6589 56be 3bd2 aa3e 5dec 203e
00000260: af61 503f d167 393f 1621 d43c b40b a33e
00000270: 1a19 c13d 23d9 a83e 75e9 e2be fddc f5bb
00000280: 795b 29bf 181d ba3f 3897 4040 6470 cd3e
00000290: 2de6 a83f e90b 79bf e092 303f cc3e 04be
000002a0: b1af c33f 2b4c 193f b69d 67bf 8680 7d3e
000002b0: f978 643f 6d82 1c3f f185 16c0 93b0 9e3f
000002c0: 953e 263f dbc1 3440 e1a9 a03f 2755 ad3f
000002d0: f15f e9be a15a e43f a174 76bf 5ab5 8d3f
000002e0: d4b1 35bf 5bb8 693f f0f2 69be 1999 533f
000002f0: 9ecc a43f 21be 043f 2304 97be 7576 04bf
00000300: 2e17 5c3f e620 9cbc a6b0 9a3e 2e8d ee3e
00000310: e5f4 313f bd1f c33f a63d e93e 25da ac3f
00000320: e433 513d 264a 8f3d 60b7 33c0 33d5 923f
00000330: fb04 f23d 0a2f 0d3f d31d 33bf 5436 95bf
00000340: 237c f0be e948 6e3b da5e e4be 5c94 323d
00000350: 8971 5a3e 2c85 f23d a03b 97be aa24 92be
00000360: 026a 28bd 5f3b 87bf 5110 9abe bde3 9ebf
00000370: 9a0d 063e ac5e c23d b4cf 073b ba4a d1bb
00000380: 3a83 e13e ce62 4fbc 6324 243e d35a 64bf
00000390: 3eeb bebe a2fc 82be db85 a0be 4460 c440
000003a0: 18b0 62bf f984 363e 1395 96bf 4060 3a3f
000003b0: e9ee 083e e8a8 803d 1a3a 11bf c699 4740
000003c0: 622a 0abf b541 4cbf 38e2 6b3f fe3b 843e
000003d0: a258 c23f d837 3fbf b7fd 4fbf 3ee8 4abe
000003e0: 4def 74bf 5d00 6140 311f b6bd 1a5d 0a3f
000003f0: d398 37be ac5e 123e 06de 49bf 811d 66be

sequential_4/sequential_1/model1/block_1_expand/Conv2D f4 [48, 1, 1, 8]
0.3918581 -0.09530375 -1.4225439 -1.5985066 -0.005330788 -0.19454938 -0.31332058 0.32577124
-0.020538837 -0.06558042 0.0033744639 0.011485086 -0.0394055 -0.16278419 0.083356895 0.010563845
-0.13654853 0.026904326 0.08090166 -0.11671946 0.0005115334 -0.0067381207 -0.011045787 -0.017512377
0.0015113077 -0.015928358 -0.021751465 -0.03199895 0.0026646836 0.058110304 0.05712564 0.014063204
0.03721093 0.004749188 0.10174574 -0.09111209 0.0013413507 -0.0026191224 -0.0036268916 0.017259004
0.20492762 1.5192204 -0.06426164 -0.055963542 0.09379642 0.2632923 0.15793137 -0.23860137
0.018622676 -0.02035081 -0.014851067 -0.034534402 0.019233232 0.0013845899 0.01211403 -0.24487711
-0.07818334 0.0091975415 -0.002002298 -0.01826223 0.0014706634 -0.00022719432 -0.001760936 -0.011615158
-0.035712402 -0.19572392 -0.08735603 -0.14141405 0.19015507 0.3021724 0.41627827 0.04306373
-0.019575156 -0.07802719 -0.006201258 0.010644652 0.0055558966 -0.096415155 0.08226968 0.015755463
0.0071761073 -0.0038139832 -0.04132231 -0.07257268 0.0035943463 -0.0032159525 -6.383254e-05 0.013961929
0.16139671 0.041620243 -0.6441467 -0.71969944 -0.29743704 -0.15170972 -0.22202635 0.16924924
0.24403077 -0.010390639 -0.041788906 0.12432568 0.0038191502 0.012790272 0.014099364 0.07602487
0.08439966 0.32719406 0.12993272 0.23274137 -1.1115364 -0.4819221 -0.5605694 -0.19142531
-0.020657796 -0.026687777 0.058921054 0.064752854 0.04069966 0.033843186 0.078513585 -0.0025680969
-0.39324898 -0.07250887 -0.10458951 -0.29072422 -0.002075776 -0.016831273 0.04717291 -1.2660606
0.047513746 0.007176208 -0.16785762 -0.18005782 -0.072685264 -0.03603051 -0.050669722 0.02459972
0.01555907 -0.07531091 0.009316911 0.00019275252 -0.016866455 0.07432939 -0.092959665 -0.008549726
-0.041826624 0.0047537233 -0.07528151 0.05615772 -0.0004666539 0.0042742896 0.003088625 -0.009132528
0.0719523 0.004591083 -0.050505646 -0.043277502 -0.032101065 -0.124397576 -0.13128084 -0.07591259
0.008210395 0.015937911 -0.0129260225 -0.007173896 0.116485424 -0.052827567 -0.054633617 0.0060642883
0.0145888 0.008910221 -0.019258456 -0.016376708 0.13184974 -0.060509957 -0.07260124 0.007287772
-1.4760292 0.27719057 1.506798 -1.6136119 -0.0022094774 -0.16252716 -0.079123035 -0.03832893
-0.09446862 -0.3882779 -0.2175115 -0.39125088 0.54501796 0.73320013 0.89746374 0.22096771
-0.011332131 -0.0034569318 0.01450889 0.011453494 -0.1154804 0.0441442 0.04701927 -0.007633281
-0.021124512 0.03140441 0.014376146 0.013940608 0.0016728139 -0.0019926904 -0.004897349 0.21044514
0.030108692 0.04509483 -0.013073549 -0.030924035 0.0063928217 -0.02264206 0.03691812 -0.16384968
0.17446847 -0.02233348 0.004956168 0.032519143 0.0036128927 0.0043163165 0.0090303365 0.01955819
-0.0295524 0.0030705566 0.07825386 0.14090659 -0.23500866 -0.3044139 -0.26414376 -0.04913711
0.022440456 -0.013950645 -0.03940746 -0.047407374 -0.011303911 -0.015390646 -0.011354071 -0.046519596
1.082543 -0.23495063 0.8365867 -0.75048184 1.0687683e-05 -0.048169754 0.028024083 -0.8079756
-0.0031789513 0.08453863 -0.018281937 0.0012982995 0.0028152918 -0.18788289 0.198517 0.026211422
00000000: a0a1 c83e 9d2e c3bd eb15 b6bf dd9b ccbf
00000010: e4ad aebb f437 47be 8e6b a0be 7dcb a63e
00000020: 1041 a8bc 074f 86bd 1c26 5d3b f12b 3c3c
00000030: a967 21bd e6b0 26be 05b7 aa3d fa13 2d3c
00000040: 61d3 0bbe 7666 dc3c c5af a53d 9d0a efbd
00000050: 6d18 063a 74cb dcbb 63f9 34bc 1e76 8fbc
00000060: 1217 c63a 307c 82bc 2130 b2bc 5511 03bd
00000070: f9a1 2e3b 1205 6e3d 93fc 693d 5a69 663c
00000080: 7d6a 183d 149f 9b3b 1260 d03d fa98 babd
00000090: 43d0 af3a 95a5 2bbb 25b1 6dbb c162 8d3c
000000a0: 8cd8 513e d075 c23f 9b9b 83bd 073a 65bd
000000b0: 5618 c03d 40ce 863e c3b8 213e eb53 74be
000000c0: 958e 983c beb6 a6bc e451 73bc f273 0dbd
000000d0: 038f 9d3c 217b b53a ed79 463c 11c1 7abe
000000e0: 961e a0bd 49b1 163c fc38 03bb ac9a 95bc
000000f0: 46c3 c03a 033b 6eb9 35cf e6ba 814d 3ebc
00000100: 2b47 12bd da6b 48be b8e7 b2bd d8ce 10be
00000110: 03b8 423e 57b6 9a3e 6d22 d53e 9863 303d
00000120: 145c a0bc b8cc 9fbd ec33 cbbb e866 2e3c
00000130: 3d0e b63b 4f75 c5bd 027d a83d 9a11 813c
00000140: 8d25 eb3b 05f4 79bb 9541 29bd fca0 94bd
00000150: 208f 6b3b bbc2 52bb d5dd 85b8 93c0 643c
00000160: 2e45 253e fd79 2a3d cce6 24bf 393e 38bf
00000170: ab49 98be cb59 1bbe e05a 63be ac4f 2d3e
00000180: 34e3 793e 803d 2abc d82a 2bbd 769e fe3d
00000190: b54a 7a3b 4a8e 513c 0501 673c edb2 9b3d
000001a0: bbd9 ac3d fb85 a73e 150d 053e c153 6e3e
000001b0: d346 8ebf 7ebe f6be 7a81 0fbf ff04 44be
000001c0: 8a3a a9bc 53a0 dabc 3457 713d 259d 843d
000001d0: b0b4 263d 279f 0a3d bbcb a03d 844d 28bb
000001e0: ee57 c9be 887f 94bd 0633 d6bd ced9 94be
000001f0: be09 08bb bde1 89bc 6238 413d 460e a2bf
00000200: c69d 423d 6526 eb3b dee2 2bbe 1461 38be
00000210: 03dc 94bd ba94 13bd 0e8b 4fbd 5a85 c93c
00000220: 78eb 7e3c 9b3c 9abd f5a5 183c 9c1d 4a39
00000230: 852b 8abc 023a 983d a361 bebd 2614 0cbc
00000240: 6552 2bbd 1fc5 9b3b 312d 9abd a305 663d
00000250: 3aa9 f4b9 570f 8c3b 876a 4a3b 99a0 15bc
00000260: ba5b 933d cc70 963b 02df 4ebd c043 31bd
00000270: 687c 03bd 28c4 febd 7c6e 06be 0f78 9bbd
00000280: e584 063c 3990 823c abc7 53bc 0013 ebbb
00000290: e98f ee3d b861 58bd 80c7 5fbd f0b6 c63b
000002a0: dd05 6f3c 2dfc 113c e9c3 9dbc 7228 86bc
000002b0: 9e03 073e 4ad9 77bd f5af 94bd 43ce ee3b
000002c0: 86ee bcbf eceb 8d3e c2de c03f d68a cebf
000002d0: e1cc 10bb 856d 26be 420b a2bd ccfe 1cbd
000002e0: c478 c1bd 5ccc c6be 56bb 5ebe 0952 c8be
000002f0: 4c86 0b3f 01b3 3b3f 2fc0 653f 5c45 623e
00000300: 67aa 39bc b18d 62bb b2b6 6d3c 70a7 3b3c
00000310: fd80 ecbd 8cd0 343d 4797 403d 9a20 fabb
00000320: 500d adbc e9a1 003d ed89 6b3c 2667 643c
00000330: 5242 db3a cc97 02bb f179 a0bb ee7e 573e
00000340: 81a6 f63c 5bb5 383d 7032 56bc 6754 fdbc
00000350: e07a d13b d77b b9bc 7437 173d 36c8 27be
00000360: dda7 323e b4f4 b6bc 5a67 a23b cb32 053d
00000370: 48c6 6c3b e36f 8d3b faf3 133c 7f38 a03c
00000380: e017 f2bc 643b 493b 8f43 a03d d149 103e
00000390: 1ca6 70be 24dc 9bbe da3d 87be ff43 49bd
000003a0: 0cd5 b73c 3f91 64bc b769 21bd 3c2e 42bd
000003b0: 0a34 39bc 0c29 7cbc 6d06 3abc 558b 3ebd
000003c0: c590 8a3f e696 70be 8c2a 563f 941f 40bf
000003d0: 404f 3337 a64d 45bd c392 e53c 7dd7 4ebf
000003e0: f455 50bb 9722 ad3d 00c4 95bc b42b aa3a
000003f0: c280 383b 5f64 40be 0a48 4b3e 56b9 d63c

sequential_4/sequential_1/model1/expanded_conv_project/Conv2D f4 [8, 1, 1, 16]
-0.6685695 -0.22335964 -1.0472784 9.799955e-19 -0.5730405 0.001235095 -7.24177 1.7476295e-21
1.0084555 1.9315755 1.2740409 0.0009614767 0.0754662 -4.149604e-22 -1.4184694 0.56289774
-2.1959803 -0.8319916 -6.79346 9.002036e-19 0.4933593 -0.01235381 0.9912258 1.1072309e-22
-0.24652433 -0.529059 -0.060192566 -0.009849088 -1.3682547 1.4346294e-21 0.34530088 0.03106436
0.24291159 0.26483947 0.36581922 1.1259417e-18 2.4252467 -0.011296505 0.9599325 -3.475161e-21
-0.26599908 -0.81583863 5.6092615 -0.009059115 0.18258306 -2.2523874e-21 5.138134 -0.09439703
-1.0881492 0.38062283 0.3377006 1.6630667e-19 2.5134633 0.0010760237 -2.3970115 2.2960601e-21
-0.8705436 1.6011305 -4.333941 0.00086653937 0.11038463 6.976147e-21 5.7323995 -0.4158946
0.5796861 -0.03536538 -1.0480051 -7.840485e-19 -9.627322 0.027305275 0.060741022 1.7163178e-21
0.24001144 -1.1646057 -0.10967847 0.021826291 0.35398352 4.08558e-22 3.8851247 0.4865642
9.713791 0.0378565 -4.738806 -7.1781525e-20 0.71287036 0.0065721003 -0.3677241 -7.663998e-21
-2.59522 0.61672384 -0.34850198 0.0052153505 10.570431 -3.0188845e-21 0.12392541 -0.5822966
10.023926 -0.50719184 1.4039344 7.6685293e-19 1.1328325 0.014808244 -0.4424439 3.246018e-22
2.8430185 1.401191 -0.091119304 0.011794828 -9.07505 2.7970783e-21 0.3527079 0.6380986
0.54423916 1.8408784 1.0201571 -1.8255456e-18 -0.59252733 0.0027330497 -0.3846417 3.4975e-21
-5.4898047 0.1256028 0.29025036 0.0022018356 -1.0805311 -3.6421243e-21 -0.3549167 -2.8142712
00000000: 5f27 2bbf 64b8 64be 380d 86bf 2f9f 9021
00000010: c8b2 12bf e9e2 a13a 94bc e7c0 120c 041d
00000020: 1215 813f de3d f73f c613 a33f 9c0b 7c3a
00000030: 068e 9a3d 03d4 fa9b 6890 b5bf 111a 103f
00000040: f18a 0cc0 67fd 54bf 0664 d9c0 bbd8 8421
00000050: 9799 fc3e a267 4abc f9c0 7d3f 23db 051b
00000060: e070 7cbe 6970 07bf 7b8c 76bd 125e 21bc
00000070: f822 afbf 89cb d81c 47cb b03e af7a fe3c
00000080: d1bd 783e 0a99 873e a84c bb3e e028 a621
00000090: 3e37 1b40 fa14 39bc 23be 753f b249 839d
000000a0: 0831 88be cdda 50bf 127f b340 af6c 14bc
000000b0: 0ef7 3a3e 822f 2a9d 986b a440 3b53 c1bd
000000c0: 7948 8bbf ffe0 c23e 18e7 ac3e 1b57 4420
000000d0: 95dc 2040 5d09 8d3a a368 19c0 437c 2d1d
000000e0: f2db 5ebf d8f1 cc3f a5af 8ac0 7928 633a
000000f0: 5611 e23d 94c6 031e d16f b740 23f0 d4be
00000100: 4f66 143f 4adb 10bd 0825 86bf 0869 67a1
00000110: 8309 1ac1 50af df3c 94cb 783d 6aae 011d
00000120: 8fc5 753e cd11 95bf 1b9f e0bd 0dcd b23c
00000130: 543d b53e 4af5 f61b e2a5 7840 f11e f93e
00000140: b06b 1b41 6b0f 1b3d 4ca4 97c0 457d a99f
00000150: ac7e 363f c65a d73b 5546 bcbe d2c4 109e
00000160: 1618 26c0 9de1 1d3f da6e b2be 88e5 aa3b
00000170: 7c20 2941 b819 649d 9bcc fd3d 6411 15bf
00000180: 0062 2041 53d7 01bf 1fb4 b33f c555 6221
00000190: a800 913f 479e 723c 0288 e2be b235 c41b
000001a0: 04f4 3540 3a5a b33f c29c babd 183f 413c
000001b0: 6833 11c1 5d57 531d 2196 b43e 6e5a 233f
000001c0: 4253 0b3f e7a1 eb3f 8294 823f 95b3 06a2
000001d0: dfaf 17bf f71c 333b c2ef c4be bf21 841d
000001e0: 7bac afc0 059e 003e b29b 943e ac4c 103b
000001f0: d84e 8abf 7798 899d a4b7 b5be 051d 34c0
